checkpoints/bi_lambda-30_lb-10/model_last.pth (torch, 224247 bytes, 103 tensors)

encoder.model.0.kernel f4 [27, 1, 2]
-0.0010819045 0.00030068707 -0.0017603969 0.00027005546 0.0068248254 0.0020164647 -0.007859815 -0.003120956
-0.0032525582 -0.004302414 -0.00038588195 -0.005036233 -0.0016491532 -0.00082220486 0.0030561541 0.004575102
0.0044626095 0.0025616242 -0.2309639 0.06814698 0.47968644 0.25352284 -0.00069877954 -0.021144211
0.44280866 -0.014980646 -0.44310042 -0.28848916 -0.008927809 -0.037928343 -0.08602589 -0.10173854
0.4350147 0.8991056 0.036906652 -0.23147802 4.1026993e-05 0.0055224327 -0.005682832 0.0037691263
0.004293599 0.005830651 -0.003168349 -0.0048961067 -0.0027946979 -0.003624034 -0.00043804012 -2.8500273e-05
0.0011371615 0.0019885786 -0.0027160496 0.0031879384 0.002795928 -0.0009086409
00000000: b1ce 8dba 89a5 9d39 1ebd e6ba 3b96 8d39
00000010: c9a2 df3b aa26 043b 74c6 00bc f488 4cbb
00000020: df28 55bb 44fb 8cbb 3350 cab9 fc06 a5bb
00000030: 6628 d8ba 3c89 57ba c249 483b bdea 953b
00000040: 153b 923b ece0 273b cd81 6cbe a590 8b3d
00000050: 7699 f53e bfcd 813e 4d2e 37ba a036 adbc
00000060: d1b7 e23e 6271 75bc 0fde e2be dab4 93be
00000070: f245 12bc c05a 1bbd 582e b0bd 4c5c d0bd
00000080: 3fba de3e c92b 663f 6e2b 173d 9308 6dbe
00000090: 6614 2c38 86f5 b43b 0d37 babb 7203 773b
000000a0: 52b1 8c3b 0c0f bf3b 13a4 4fbb 856f a0bb
000000b0: 4027 37bb 3481 6dbb c0a8 e5b9 df13 efb7
000000c0: cf0c 953a d052 023b c0ff 31bb bbec 503b
000000d0: e33b 373b dc31 6eba

encoder.model.2.kernel f4 [27, 2, 2]
0.0012095249 -0.0045355866 0.0013528806 0.009226085 0.0025010055 0.0038889067 -0.0023588273 0.0134592075
-0.010515094 -0.012029325 -0.004746358 -0.0062356517 -0.0037446672 -0.0074597043 0.0051659797 0.004495938
-0.0038031493 0.00074676936 0.01309051 0.006724182 0.0047601094 -0.006559624 0.00034086505 0.004751842
0.002451921 -0.0136571685 0.0019900298 0.0062369206 0.005518485 -0.012991913 -0.007166374 0.0044801435
0.002601856 -0.021287318 -0.008693536 -0.0025688803 0.05349992 -0.083143055 -0.066546634 0.05829333
-0.23634319 0.3227665 0.13427292 -0.28028375 -0.02194783 -0.16914313 0.01990068 0.0976581
-0.009026376 -0.1513883 0.023987234 0.09016455 -0.099979945 1.6941403 1.4085622 0.059137885
-0.020077284 -0.14657891 0.064443946 0.14915137 0.067722954 -0.11425686 -0.04843622 0.0525209
-0.29210675 0.8687974 0.28736308 0.4660232 -0.054731634 -0.15255016 0.07646933 0.072617
0.0015321762 -0.0024317363 -0.0035535092 0.008108006 -0.00095978595 -0.020094542 0.0024930283 -0.010560683
0.00021903781 -0.010595165 -0.011290129 0.010961136 0.0040805596 -0.023725027 0.0190542 0.01233622
-0.003772296 -0.015456361 0.004516538 0.022310568 -0.0008721726 -0.009055059 -0.0052928333 0.02449635
-0.007103738 -0.009545412 -0.0075571323 0.008404829 0.007623019 -0.018368658 -0.0001940608 -0.005971778
0.0014887244 -0.010890024 -0.0018797115 0.0154919
00000000: ec88 9e3a 429f 94bb 2453 b13a 0129 173c
00000010: e9e7 233b 07dd 7e3b 8e96 1abb 0284 5c3c
00000020: 8047 2cbc a516 45bc 5687 9bbb 7054 ccbb
00000030: 1769 75bb 8970 f4bb 6147 a93b a952 933b
00000040: 423e 79bb d8c2 433a 9479 563c 8756 dc3b
00000050: b1fa 9b3b 1df2 d6bb 22b6 b239 57b5 9b3b
00000060: 69b0 203b 51c2 5fbc 296b 023b 155f cc3b
00000070: 68d4 b43b 08dc 54bc e7d3 eabb 2bce 923b
00000080: e683 2a3b be62 aebc 556f 0ebc a95a 28bb
00000090: bb22 5b3d e846 aabd 9a49 88bd fdc4 6e3d
000000a0: f303 72be a741 a53e d77e 093e 5a81 8fbe
000000b0: f0cb b3bc db33 2dbe c006 a33c f800 c83d
000000c0: 5de3 13bc 8905 1bbe e080 c43c 31a8 b83d
000000d0: 49c2 ccbd 97d9 d83f c44b b43f 913a 723d
000000e0: 1e79 a4bc c818 16be 30fb 833d 23bb 183e
000000f0: 55b2 8a3d 80ff e9bd 0f65 46bd 2820 573d
00000100: 048f 95be 8269 5e3f 4121 933e 989a ee3e
00000110: 472e 60bd 1c36 1cbe f49b 9c3d 39b8 943d
00000120: 4dd3 c83a c45d 1fbb fee1 68bb 71d7 043c
00000130: 259a 7bba 4f9d a4bc 1362 233b b706 2dbc
00000140: 84ad 6539 5897 2dbc 3cfa 38bc 5696 333c
00000150: 37b6 853b fd5a c2bc 8e17 9c3c db1d 4a3c
00000160: a038 77bb ad3c 7dbc 78ff 933b a7c4 b63c
00000170: 83a2 64ba ac5b 14bc 816f adbb 92ac c83c
00000180: 79c6 e8bb 5c64 1cbc d2a1 f7bb 68b4 093c
00000190: 85ca f93b de79 96bc cd7c 4bb9 e8ae c3bb
000001a0: 4d21 c33a 126c 32bc a760 f6ba bdd1 7d3c

encoder.model.4.kernel f4 [27, 2, 2]
0.0070968815 -0.01670877 -0.014570224 8.360099e-05 -0.0040742788 -0.002284326 0.0049761543 0.004104011
0.009766703 -0.011228549 -0.009886377 -0.002722004 0.013203492 0.0039156782 0.0032522364 -0.0024252392
-0.01024298 -0.002103411 -0.0010918889 0.0075020855 0.010962552 0.00475549 0.0049052313 0.0043774983
0.008900114 0.0032808678 -0.003554714 0.0029817722 0.011548532 -0.018808344 -0.0024450482 0.003394788
-0.002386453 -0.00894728 -0.00065714534 -0.00043086614 0.08351678 -0.03504694 -0.058546722 0.009445676
-0.86028975 -3.0234308 1.1372948 -0.61608374 0.039318018 -0.0070790686 -0.028527843 0.006008092
0.043128386 -0.07806688 -0.032552946 0.0310096 1.151759 1.1336535 0.7798158 0.0023707957
0.030043557 -0.035797477 -0.0054945713 0.025392491 -0.024425477 -0.025978372 0.008422889 0.013452607
-0.28152165 0.11588936 0.09789924 -0.006393619 -0.003828592 -0.005890752 -0.0055684247 0.010689748
-0.005468203 -0.007346471 -0.0034749897 -0.0016344858 0.0042085513 -0.0039327317 -0.00528883 0.005782151
-0.005921101 -0.00684029 0.0035473166 0.00795064 0.0042781276 -0.0028738983 -0.004209763 -0.0047531747
0.00392597 -0.00052403106 -0.010686201 0.0017045513 -0.0075880117 0.0036517493 -0.0031186724 -0.005114326
-0.0007178317 -0.010215268 0.0034397908 -0.00066160585 -0.024351833 -0.006280788 0.005943058 0.0009941683
-0.0032164024 -0.014700392 0.004030636 -0.008182747
00000000: f58c e83b d5e0 88bc f3b7 6ebc f152 af38
00000010: 8781 85bb a1b4 15bb 020f a33b f17a 863b
00000020: 8504 203c f3f7 37bc 78fa 21bc a663 32bb
00000030: 7653 583c 174f 803b 7923 553b c3f0 1ebb
00000040: 2cd2 27bc 61d9 09bb b61d 8fba 0ed4 f53b
00000050: 479c 333c f1d3 9b3b 10bc a03b 1e71 8f3b
00000060: c9d1 113c d403 573b 34f6 68bb d669 433b
00000070: 0e36 3d3c f513 9abc 1a3d 20bb 177b 5e3b
00000080: 0a66 1cbb 9d97 12bc 4744 2cba e0e5 e1b9
00000090: d80a ab3d 618d 0fbd b0ce 6fbd 09c2 1a3c
000000a0: f33b 5cbf e47f 41c0 e092 913f aab7 1dbf
000000b0: ee0b 213d 88f7 e7bb 39b3 e9bc 87df c43b
000000c0: 64a7 303d 87e1 9fbd 3d56 05bd d807 fe3c
000000d0: d76c 933f 8f1b 913f 02a2 473f 5a5f 1b3b
000000e0: e81d f63c 60a0 12bd ce0b b4bb ea03 d03c
000000f0: f017 c8bc 98d0 d4bc 2800 0a3c 5368 5c3c
00000100: 9b23 90be 6757 ed3d 667f c83d 9081 d1bb
00000110: 1de9 7abb 3607 c1bb 5577 b6bb 0e24 2f3c
00000120: 9d2e b3bb aaba f0bb a7bc 63bb 3e3c d6ba
00000130: e3e7 893b 25de 80bb ec4d adbb 3378 bd3b
00000140: cc05 c2bb 8324 e0bb 197a 683b 6743 023c
00000150: 892f 8c3b 0358 3cbb 0df2 89bb 85c0 9bbb
00000160: 6ca5 803b 215f 09ba 2d15 2fbc 406b df3a
00000170: dba4 f8bb 3052 6f3b a462 4cbb 1396 a7bb
00000180: df2c 3cba f05d 27bc 1d6e 613b 9e6f 2dba
00000190: 7f7d c7bc 12cf cdbb fcbd c23b c14e 823a
000001a0: 47ca 52bb ead9 70bc 6d13 843b ee10 06bc

encoder.model.6.kernel f4 [27, 2, 2]
-0.00020329327 0.0018419487 0.00025693208 -0.0019912722 -0.008493927 0.004845035 -0.022579629 0.0022946477
-0.0021763819 0.004076038 -0.012577192 0.005154937 -0.0061448007 0.001208314 0.010525303 0.001713263
-0.0035752868 0.0017631364 0.004214954 0.0060617183 -0.0069847936 0.0058339913 0.009677412 0.0038419312
0.0060249134 -0.0007862174 -0.017533587 -0.001356483 0.005691926 -0.00061987486 -0.014157802 -0.0038338664
0.009027923 -0.0036358114 -0.012499704 0.00012055649 0.06625474 -0.015647888 0.16688436 -0.0077416888
0.39876208 0.55117977 0.4781505 0.6991459 -0.17537948 -0.07308331 -0.24348797 -0.08528928
-0.04118715 0.025991965 -0.0180807 -0.04271478 0.56154567 -0.6573443 3.1041868 -1.6595242
-0.19543745 -0.015704134 0.18330441 -0.0067687416 -0.0045578806 -0.010270939 0.0910239 0.019066108
-0.3035183 0.22863767 18.647432 -6.9988446 0.053074684 0.005862543 -0.04574556 -0.014160158
0.0016227559 -0.0009878429 -0.02043461 0.005400964 -0.008722705 0.005223934 -0.005556503 -0.0016770276
-0.0015116949 -0.00042465888 -0.004914699 0.0026660687 -0.0025794965 -0.0010130833 0.005864841 0.001584692
-0.0028635499 0.0038213944 -0.0034513487 0.000257283 -0.002502426 -0.0017356189 0.007945657 -0.0073688864
0.005285136 0.0017011317 -0.026263239 0.0063205445 0.0018983092 6.8393994e-05 -0.007193986 -0.0046811597
0.008116553 -0.0035888478 -0.022749022 -0.002847221
00000000: 1f2b 55b9 8b6d f13a d7b4 8639 0180 02bb
00000010: 1d2a 0bbc 19c3 9e3b eaf8 b8bc cd61 163b
00000020: a1a1 0ebb 4990 853b 9110 4ebc bfea a83b
00000030: 535a c9bb 4a60 9e3a 5272 2c3c 918f e03a
00000040: 5c4f 6abb 0a19 e73a 991d 8a3b 61a1 c63b
00000050: b2e0 e4bb 112b bf3b 028e 1e3c e9c8 7b3b
00000060: a36c c53b 281a 4eba 99a2 8fbc 04cc b1ba
00000070: 5683 ba3b 197f 22ba 20f6 67bc 9b41 7bbb
00000080: dbe9 133c cb46 6ebb 8fcb 4cbc 46d3 fc38
00000090: 91b0 873d 0030 80bc bce3 2a3e fead fdbb
000000a0: 8b2a cc3e 1e1a 0d3f 24d0 f43e 3afb 323f
000000b0: ae96 33be b4ac 95bd e954 79be 25ac aebd
000000c0: dbb3 28bd 1aed d43c fa1d 94bc b1f5 2ebd
000000d0: 75c1 0f3f b747 28bf ffaa 4640 4a6b d4bf
000000e0: c120 48be f5a5 80bc 27b4 3b3e 52cc ddbb
000000f0: 465a 95bb 7147 28bc bd6a ba3d 8730 9c3c
00000100: c066 9bbe fe1f 6a3e f12d 9541 89f6 dfc0
00000110: d764 593d 931a c03b b25f 3bbd 0200 68bc
00000120: a7b2 d43a 827a 81ba 7c66 a7bc 92fa b03b
00000130: ade9 0ebc 892d ab3b 5313 b6bb b5cf dbba
00000140: 1024 c6ba c0a4 deb9 7c0b a1bb 36b9 2e3b
00000150: c50c 29bb 6fc9 84ba da2d c03b 71b5 cf3a
00000160: 65aa 3bbb 5c70 7a3b 0630 62bb f1e3 8639
00000170: beff 23bb b57d e3ba 802e 023c b376 f1bb
00000180: ef2e ad3b 82f8 de3a 0126 d7bc 921c cf3b
00000190: b0d0 f83a bf6e 8f38 87bb ebbb 6a64 99bb
000001a0: 4afb 043c e032 6bbb 285c babc 7198 3abb

encoder.model.8.kernel f4 [2, 2]
-0.7781309 0.05717428 3.096846 0.14305647
00000000: 9633 47bf 942f 6a3d ba32 4640 657d 123e

decoder.reg.model.0.weight f4 [16, 1, 3, 3, 3]
-0.0002852835 -0.025487797 0.00096927525 -0.0009529706 0.013114237 0.00087045046 -0.0027602853 0.25023058
-0.00036729054 -0.0018752682 0.30934882 -0.002495996 -0.002518672 0.30805764 -0.0013418413 -0.0033418767
0.28544766 -0.0041051763 0.0027114071 -0.05475035 -0.0033858812 0.0026175044 -0.058122374 -0.0065895896
-0.00028395356 -0.16673298 -0.0036561633 0.001383738 -0.6018999 0.0018268808 0.0037800204 0.39138114
0.0014541625 -0.00014394721 0.04082489 0.0037020892 0.003064545 0.14906004 0.0011105334 0.00035075177
-0.28755078 0.0014114139 -0.0038865306 -0.29275835 0.005362493 0.0021642663 -0.02277133 0.0021526774
-0.00013104531 -0.0005116056 0.0012022821 0.0023191692 0.020302938 0.0037160353 -0.007901005 -0.096244596
-0.0057093217 -0.0076061813 -0.06007705 -0.011479161 -0.0012015977 -0.07957678 -0.008268988 -0.010025611
0.101233386 -0.004626763 -0.0076841167 -0.46479583 -0.01121451 -0.0031631875 0.43146536 -0.005557939
-0.0070885615 0.008437256 -0.0043083327 -0.005861679 -0.117890134 -0.0047103097 -0.006925653 -0.3010722
-0.004456711 -0.1410134 0.010806468 -0.15991627 -0.15436465 0.085232064 -0.18239394 -0.037570402
0.15555696 -0.067928664 -0.11764712 -0.3556808 -0.27762967 -0.15291998 0.13880026 -0.22940607
-0.07040899 0.12689376 -0.11132003 -0.103702396 -0.22272687 -0.19976588 -0.13264973 0.12367877
-0.20854063 -0.07047949 0.13649294 -0.12071829 -0.00075900933 -0.45068026 -0.008235446 -0.035358366
-0.4575501 -0.0100033125 -0.047624204 -0.46546108 -0.002482888 0.0020884904 -0.3866682 -0.017230144
-0.012586335 -0.39437863 -0.008024476 -0.013093139 -0.4938234 0.004416968 -0.00062467594 -0.5275454
0.0012616037 -0.0014041571 -0.35453123 0.00068232574 -0.006100307 -0.50385076 -0.0013170821 -0.0069115986
-1.8287994 0.0035653308 -8.4991625e-05 -0.6886774 -0.0033857955 0.017828187 0.16985002 -0.009056155
-0.007446376 -1.1506974 0.014322749 0.0021597103 -0.7863104 0.002904484 0.012913109 -0.4949708
-0.006848394 -0.0041215224 0.0015987629 0.010287822 0.0032631387 0.10640511 0.004354727 0.009212734
0.09951894 0.00021616637 0.0060507925 -0.31650174 -0.0010874191 -0.039625727 -0.5199259 -0.078049876
-0.09324 -0.21751949 -0.0030760327 0.0035829346 -0.051238164 -0.12928514 -0.062156882 -0.039073326
-0.085190065 -0.22016455 -0.024221161 -0.007548054 -0.00057090493 -0.12558651 -0.07318701 -0.010738879
-0.5446437 -0.0065660607 -0.33253032 -0.41072464 -0.009189342 0.00047728108 0.013926442 0.0042936513
-0.004336315 -0.044272434 0.0007795722 -0.0036915233 -0.03520647 0.003542379 -0.0075505152 0.080829695
-0.0037248817 -0.0070473775 0.18278232 -0.0033377835 -0.0031001845 0.015265911 -0.00013896091 -0.0049909237
-1.257851 -0.0005152721 -0.0034574906 -0.12276554 -0.0040435684 -0.0048557376 -0.20338187 -0.0046893144
0.01014265 -0.021486877 0.0024163257 0.013314285 -0.07127055 0.008715551 0.011941338 -0.44449607
0.0028414747 0.007782186 0.10847616 -0.0012636046 0.007714618 0.098820746 0.0042599346 0.007527959
-0.47396597 0.005917264 -0.0071755466 0.3242461 -0.002796565 0.000115762276 -0.55937415 0.009152024
0.0062261284 -0.5622824 0.013247796 0.0014802006 -0.21177226 0.0008628455 -0.0021835796 -0.3540734
0.0010697225 -0.0002950041 -0.33738804 -0.0019757205 -0.00061420724 -0.16414091 0.0005645184 -0.0017579767
00000000: 1a92 95b9 c9cb d0bc f616 7e3a c6d0 79ba
00000010: 19dd 563c f12e 643a e7e5 34bb 391e 803e
00000020: e790 c0b9 8fcb f5ba f862 9e3e dd93 23bb
00000030: 4e10 25bb bbb9 9d3e b9e0 afba 6303 5bbb
00000040: 3226 923e b784 86bb ddb1 313b e741 60bd
00000050: a9e5 5dbb 708a 2b3b ba11 6ebd 7ced d7bb
00000060: 9adf 94b9 0dbc 2abe 3e9c 6fbb 8b5e b53a
00000070: 1d16 1abf f373 ef3a 38ba 773b 1c63 c83e
00000080: 9999 be3a 89f0 16b9 0038 273d c09e 723b
00000090: 89d6 483b 32a3 183e 518f 913a 1be5 b739
000000a0: db39 93be 31ff b83a 2ab5 7ebb 6ce4 95be
000000b0: dab7 af3b 5dd6 0d3b f18a babc ef13 0d3b
000000c0: 3569 09b9 451d 06ba e595 9d3a 34fd 173b
000000d0: 5952 a63c ba88 733b 3873 01bc e31b c5bd
000000e0: 4315 bbbb 463d f9bb 5a13 76bd 1713 3cbc
000000f0: ee7e 9dba 27f9 a2bd a67a 07bc 7642 24bc
00000100: 7353 cf3d 1a9c 97bb 0bcb fbbb b8f9 edbe
00000110: 10bd 37bc 7b4d 4fbb 07e9 dc3e 5f1f b6bb
00000120: 2a47 e8bb 6b3c 0a3c ea2c 8dbb 5413 c0bb
00000130: 6270 f1bd f158 9abb 97f0 e2bb 2326 9abe
00000140: 9a09 92bb d165 10be 9d0d 313c 17c1 23be
00000150: c411 1ebe 268e ae3d 7ac5 3abe 6ce3 19bd
00000160: 534a 1f3e 2f1e 8bbd f9f0 f0bd cb1b b6be
00000170: 7a25 8ebe 0e97 1cbe a821 0e3e 6de9 6abe
00000180: 9732 90bd 70f0 013e c2fb e3bd ec61 d4bd
00000190: 8312 64be 6d8f 4cbe 55d5 07be 4c4b fd3d
000001a0: ad8b 55be 8d57 90bd cec4 0b3e 273b f7bd
000001b0: 41f8 46ba 90bf e6be f7ed 06bc efd3 10bd
000001c0: 0244 eabe efe4 23bc 9911 43bd ea50 eebe
000001d0: f3b7 22bb 0edf 083b 60f9 c5be 3b26 8dbc
000001e0: ea36 4ebc ffeb c9be 1779 03bc 9b84 56bc
000001f0: 6cd6 fcbe 37bc 903b 4bc1 23ba 370d 07bf
00000200: 655c a53a b20b b8ba 1e85 b5be 1bde 323a
00000210: 16e5 c7bb 5dfc 00bf f1a1 acba b17a e2bb
00000220: 1916 eabf 53a8 693b 883d b2b8 294d 30bf
00000230: 39e4 5dbb 6b0c 923c 2aed 2d3e 4460 14bc
00000240: bb00 f4bb 0d4a 93bf f7a9 6a3c ed89 0d3b
00000250: a34b 49bf 2859 3e3b 8191 533c d06c fdbe
00000260: 7e68 e0bb d60d 87bb 958d d13a 418e 283c
00000270: 62da 553b ecea d93d 19b2 8e3b 02f1 163c
00000280: 96d0 cb3d b8aa 6239 ba45 c63b 840c a2be
00000290: bb87 8eba 964e 22bd dd19 05bf 9dd8 9fbd
000002a0: 9df4 bebd 6ebd 5ebe 4497 49bb abcf 6a3b
000002b0: 1cdf 51bd 5363 04be 3798 7ebd 5a0b 20bd
000002c0: 2178 aebd d172 61be 756b c6bc ab55 f7bb
000002d0: c8a8 15ba c099 00be 12e3 95bd 20f2 2fbc
000002e0: c56d 0bbf 1c28 d7bb 6a41 aabe 804a d2be
000002f0: e58e 16bc 953b fa39 bb2b 643c c2b1 8c3b
00000300: a617 8ebb 0357 35bd 345c 4c3a 7ced 71bb
00000310: a934 10bd 4227 683b 506a f7bb 0a8a a53d
00000320: 251d 74bb b0ed e6bb 4a2b 3b3e b7be 5abb
00000330: 772c 4bbb df1d 7a3c 09b6 11b9 e78a a3bb
00000340: 4301 a1bf 5313 07ba 1197 62bb 806c fbbd
00000350: e97f 84bb e11c 9fbb 5643 50be d2a8 99bb
00000360: 5c2d 263c 3f05 b0bc 385b 1e3b 2924 5a3c
00000370: 4bf6 91bd accb 0e3c 9aa5 433c fd94 e3be
00000380: 0938 3a3b b501 ff3b c028 de3d 899f a5ba
00000390: e8ca fc3b 8862 ca3d ec96 8b3b 19ad f63b
000003a0: abab f2be 9ce5 c13b d920 ebbb 9603 a63e
000003b0: 9346 37bb 66c5 f238 2533 0fbf 5ff2 153c
000003c0: 8d04 cc3b bdf1 0fbf 490d 593c 4a03 c23a
000003d0: d4da 58be 9530 623a 631a 0fbb 1c49 b5be
000003e0: ee35 8c3a c8aa 9ab9 20be acbe 177b 01bb
000003f0: c002 21ba 8e14 28be 30fc 133a e96b e6ba

decoder.reg.model.0.bias f4 [16]
-0.04680362 0.3751488 0.039613567 -0.051946346 0.08978578 0.06347314 -0.1800866 -0.10218069
-0.0030118548 2.6334054 2.8334777 0.11284778 -0.07670178 -0.015084469 -0.11779462 -0.029493676
00000000: 27b5 3fbd 8113 c03e d641 223d b1c5 54bd
00000010: 9be1 b73d 35fe 813d 9f68 38be 1c44 d1bd
00000020: 8a62 45bb b789 2840 b357 3540 bd1c e73d
00000030: d315 9dbd d924 77bc 4e3e f1bd b99c f1bc

decoder.reg.model.0.norm.weight f4 [16]
0.10517334 0.12117233 0.10736779 0.08352444 0.069870576 0.347157 0.28260723 0.29918513
0.08404686 0.1452336 0.14470525 0.083703764 0.5803883 0.41842788 0.13109486 0.05084292
00000000: 1f65 d73d 3329 f83d a5e3 db3d dd0e ab3d
00000010: 4e18 8f3d 90be b13e e5b1 903e cb2e 993e
00000020: c320 ac3d 1eb8 143e 9d2d 143e e16c ab3d
00000030: 5494 143f 2e3c d63e bb3d 063e aa40 503d

decoder.reg.model.0.norm.bias f4 [16]
-0.33936217 0.27876306 0.063793965 -0.027665995 0.113889985 -0.030549511 -0.0771558 -0.06753747
0.20366846 -0.03236911 -0.32252166 -0.16266069 -0.099322826 0.060750432 0.18615556 0.02131464
00000000: e1c0 adbe 08ba 8e3e 69a6 823d cca3 e2bc
00000010: 273f e93d f842 fabc dc03 9ebd 1651 8abd
00000020: 778e 503e 7995 04bd 8f21 a5be 8690 26be
00000030: c469 cbbd 72d5 783d 909f 3e3e 0a9c ae3c

decoder.reg.model.0.norm.running_mean f4 [16]
-0.038175978 0.3692886 0.03242067 -0.07584562 0.046623778 0.017107943 -0.21511385 -0.11660523
-0.018655462 2.62443 2.8283849 0.135932 -0.14143538 -0.039710797 -0.12800951 -0.042984243
00000000: 6a5e 1cbd 6513 bd3e 89cb 043d f354 9bbd
00000010: 93f8 3e3d f525 8c3c ce46 5cbe b9ce eebd
00000020: 57d3 98bc a9f6 2740 4204 3540 c231 0b3e
00000030: 70d4 10be caa7 22bd ed14 03be 3f10 30bd

decoder.reg.model.0.norm.running_var f4 [16]
0.002757666 0.0055390527 0.0044824183 0.0076070465 0.021907274 0.05427839 0.013130508 0.01246621
0.010905358 0.004350373 0.003297519 0.0069563286 0.06953823 0.038404353 0.0064733583 0.0078097647
00000000: f5b9 343b f180 b53b 40e1 923b 8844 f93b
00000010: e276 b33c 0453 5e3d 5821 573c 133f 4c3c
00000020: 63ac 323c 938d 8e3b 301b 583b eaf1 e33b
00000030: 0f6a 8e3d e24d 1d3d 771e d43b 0ee9 ff3b

decoder.reg.model.1.weight f4 [16, 16, 3, 3, 3]
-0.029775353 -0.021391787 0.018530175 -0.035698693 0.10450479 0.06814226 0.065598525 -0.29464197
0.1265206 0.035304092 -0.18344557 0.0997434 -0.0007323357 -0.2070904 0.07784833 0.029050676
0.0053882147 0.09352304 0.061645184 0.0949257 0.002842375 -0.012971956 -0.026670763 -0.0348657
-0.05277118 0.3802872 0.08907469 0.00981205 -0.1925614 0.0004280058 -0.055622 -0.133522
-0.0061865347 0.043610677 -0.02724757 0.047557827 0.025647452 -0.07117579 -0.041544646 0.082725585
-0.12422073 -0.056596525 -0.06782133 0.03887741 -0.013691409 0.004825825 -0.15173142 -0.06621842
0.064065285 -0.24047287 -0.040836092 -0.0042023123 0.0920314 -0.025124189 -0.1066163 -0.28593445
0.04609199 0.13099004 -0.10378602 0.10659844 0.08523571 0.47219092 0.12514423 -0.09483369
-0.08476936 -0.0073797866 -0.014670473 -0.14063431 0.021854809 0.04144757 0.64510477 0.1342758
0.04504737 -0.116758585 -0.020364754 -0.026447898 -0.13796845 0.029189877 0.06413909 0.049698547
0.04959081 -0.055687916 0.078849345 -0.099408746 -0.1912433 -0.009262383 -0.16888668 0.027980935
0.20802848 -0.04852741 0.022185815 0.13297096 -0.027459191 -0.025116723 -0.100927085 -0.060266886
-0.10329158 0.006956291 -0.008027676 0.05869372 -0.06287889 -0.084950246 -0.0799898 -0.05473636
-0.12429 -0.11176974 0.32980517 -0.15442936 -0.018125938 0.13102172 0.073133186 -0.06468648
-0.011507346 -0.06979456 0.060855128 0.17636019 0.0264466 -0.020551395 -0.19489054 -0.10695914
-0.06970406 -0.16943412 -0.11111806 0.0469272 0.19117494 0.036971554 0.018295411 0.08294625
0.05281916 -0.019684896 0.26564303 -0.065302305 0.0015769321 0.188617 -0.008055104 -0.08202779
0.44646305 0.027021108 -0.011507446 0.17851311 -0.024863703 -0.08184479 -0.00913871 -0.047691017
-0.082909904 -0.0991428 0.033790726 -0.035956785 -0.15854067 -0.049079552 -0.08232592 -0.05715654
-0.06904655 -0.1050162 -0.19738033 -0.117146835 0.0019221359 -0.15445139 -0.0039583915 -0.01518268
0.09390079 0.073289506 0.13778618 0.12356999 -0.09489287 0.027243199 0.20656478 -0.007929183
-0.16643347 0.063005045 0.13584666 -0.0326784 -0.0022128662 -0.102578856 -0.042397577 0.21339652
-0.005466606 -0.039849408 0.067131355 0.19186747 -0.06409151 -0.10970523 -0.034226254 0.064553484
0.08592712 0.09877899 0.027851757 -0.029368669 0.0036186315 -0.041639704 -0.61079305 -0.057890784
0.039261583 0.23045525 -0.088136524 -0.07955283 -0.3345173 -0.0397379 -0.05113706 0.124930024
-0.18965895 0.036424506 -0.014346667 -0.05246197 0.052189805 0.44632515 0.0055474923 -0.035933513
0.0018713766 -0.095896654 -0.043224275 0.029604213 -0.046264343 0.0017968648 -0.0024365257 0.014753221
-0.0074687656 -0.009879165 -0.013512759 0.054113537 0.22744656 0.016968084 0.062760204 0.038823087
0.101751365 -0.077617556 -0.08940365 -0.010764565 0.073181696 0.016561171 0.006194677 0.03556573
0.27055436 0.064557575 0.0016080034 0.041167777 -0.02098817 0.009971895 -0.015934624 0.039750867
0.05416346 -0.0593704 0.083904736 -0.13829902 -0.21898603 -0.011374052 -0.016052755 0.06436786
0.03227002 0.017691107 0.13490763 0.03776006 0.02428154 -0.10784316 0.05525684 0.01797181
00000000: 71eb f3bc d43d afbc 98cc 973c cb38 12bd
00000010: 9b06 d63d 2b8e 8b3d 8558 863d 50db 96be
00000020: 9e8e 013e 069b 103d 28d9 3bbe 4546 cc3d
00000030: 38fa 3fba 810f 54be f26e 9f3d affb ed3c
00000040: 9f8f b03b 0289 bf3d a97f 7c3d 6868 c23d
00000050: 2447 3a3b 5488 54bc a57c dabc 56cf 0ebd
00000060: 9826 58bd 01b5 c23e cb6c b63d b8c2 203c
00000070: d12e 45be f765 e039 e5d3 63bd feb9 08be
00000080: 6ab8 cabb 1ca1 323d 4c36 dfbc ffcb 423d
00000090: 9b1a d23c 9dc4 91bd b82a 2abd 086c a93d
000000a0: 7067 febd c2d1 67bd e9e5 8abd eb3d 1f3d
000000b0: ee51 60bc f421 9e3b 7b5f 1bbe 869d 87bd
000000c0: a934 833d 853e 76be bf43 27bd 8db3 89bb
000000d0: f57a bc3d 3ed1 cdbc a659 dabd 0066 92be
000000e0: f4ca 3c3d 4122 063e c48d d4bd 4850 da3d
000000f0: 0f90 ae3d 02c3 f13e cf25 003e 2a38 c2bd
00000100: 8f9b adbd 23d2 f1bb 6c5c 70bc 7102 10be
00000110: db08 b33c edc4 293d 9625 253f 987f 093e
00000120: 9783 383d 201f efbd fcd3 a6bc 43a9 d8bc
00000130: 9a47 0dbe 9c1f ef3c 5b5b 833d b490 4b3d
00000140: bc1f 4b3d 0319 64bd c47b a13d d096 cbbd
00000150: 49d5 43be 40c1 17bc a1f0 2cbe 4638 e53c
00000160: 6b05 553e adc4 46bd 07bf b53c 8a29 083e
00000170: 19f2 e0bc 96c1 cdbc dcb2 cebd 69da 76bd
00000180: 898a d3bd 99f1 e33b 8386 03bc d368 703d
00000190: a6c6 80bd 65fa adbd b1d1 a3bd 3c33 60bd
000001a0: c18b febd 89e7 e4bd 39dc a83e bb22 1ebe
000001b0: d97c 94bc 8f2a 063e dac6 953d 587a 84bd
000001c0: 4f89 3cbc 73f0 8ebd 3a43 793d c497 343e
000001d0: 8aa6 d83c 665b a8bc 6391 47be 650d dbbd
000001e0: 01c1 8ebd 2380 2dbe de91 e3bd bc36 403d
000001f0: 5dc3 433e 7c6f 173d 42e0 953c b9df a93d
00000200: e758 583d 3842 a1bc 5d02 883e 37bd 85bd
00000210: 10b1 ce3a d124 413e 8ef9 03bc 30fe a7bd
00000220: ce96 e43e 5f5b dd3c ba89 3cbc 24cc 363e
00000230: f7ae cbbc 3e9e a7bd 87ba 15bc a857 43bd
00000240: abcc a9bd 610b cbbd 2568 0a3d 6c47 13bd
00000250: 7c58 22be a407 49bd 7e9a a8bd fa1c 6abd
00000260: 4768 8dbd bc12 d7bd 121e 4abe aeea efbd
00000270: 2ef0 fb3a 8128 1ebe 65b5 81bb c7c0 78bc
00000280: 0f4f c03d cf18 963d d217 0d3e 4312 fd3d
00000290: 3157 c2bd 212d df3c b885 533e 67e9 01bc
000002a0: 896d 2abe ca08 813d 631b 0b3e c9d9 05bd
000002b0: bc05 11bb dd14 d2bd 15a9 2dbd 9e84 5a3e
000002c0: 3721 b3bb 2239 23bd 2a7c 893d e878 443e
000002d0: 6942 83bd 23ad e0bd d430 0cbd 9e34 843d
000002e0: 8ffa af3d a44c ca3d 5e29 e43c 9096 f0bc
000002f0: 9026 6d3b 658e 2abd ef5c 1cbf e31e 6dbd
00000300: c1d0 203d 76fc 6b3e ec80 b4bd 98ec a2bd
00000310: da45 abbe 35c4 22bd 1875 51bd 50db ff3d
00000320: f535 42be dd31 153d 480e 6bbc 5de2 56bd
00000330: fac4 553d bb84 e43e bdc7 b53b 052f 13bd
00000340: fb48 f53a 7765 c4bd f00b 31bd 8984 f23c
00000350: ae7f 3dbd c784 eb3a 1eae 1fbb 7eb7 713c
00000360: 8cbc f4bb 39dc 21bc 9e64 5dbc 28a6 5d3d
00000370: c0e7 683e a700 8b3c 6c88 803d f504 1f3d
00000380: 0563 d03d f4f5 9ebd 4319 b7bd dc5d 30bc
00000390: 49e0 953d 4bab 873c b8fc ca3b 5fad 113d
000003a0: 1a86 8a3e c336 843d a4c3 d23a 8b9f 283d
000003b0: 62ef abbc 2961 233c 5489 82bc ced1 223d
000003c0: 81da 5d3d 602e 73bd 3fd6 ab3d 429e 0dbe
000003d0: e03d 60be 3b5a 3abc 1181 83bc 4cd3 833d
000003e0: 922d 043d f1ec 903c 3a25 0a3e 4baa 1a3d
000003f0: 15ea c63c e0dc dcbd ff54 623d 9e39 933c

decoder.reg.model.1.bias f4 [16]
0.010651116 0.15060925 0.008464403 0.99707174 0.0918141 2.6475656 -0.12665014 0.013666157
0.05335229 -0.11329325 0.052519012 0.033441823 -0.013412284 -0.03707282 -0.2184746 0.0011823233
00000000: 0582 2e3c 5039 1a3e 48ae 0a3c 1840 7f3f
00000010: 0809 bc3d b771 2940 93b0 01be 04e8 5f3c
00000020: ee87 5a3d 4b06 e8bd 2d1e 573d 4bfa 083d
00000030: 32bf 5bbc abd9 17bd ceb7 5fbe 30f8 9a3a

decoder.reg.model.1.norm.weight f4 [16]
0.1200234 0.11762287 0.3113033 0.12200667 0.11426273 0.2443712 0.19274282 0.16925901
0.21234477 0.25928235 0.37305072 0.32957017 0.13556927 0.08025009 0.26227692 0.2185973
00000000: d4ce f53d 42e4 f03d 2563 9f3e a2de f93d
00000010: 9402 ea3d 723c 7a3e 605e 453e 3c52 2d3e
00000020: e870 593e a8c0 843e 8100 bf3e 6cbd a83e
00000030: acd2 0a3e 295a a43d 2949 863e f8d7 5f3e

decoder.reg.model.1.norm.bias f4 [16]
0.019609855 -0.17259882 -0.057707172 -0.022444062 -0.033961948 -0.33193958 0.028286248 0.16349857
-0.028417122 0.09415656 -0.00419389 -0.1497305 -0.040442903 -0.011549027 -0.071566805 -0.014924082
00000000: d9a4 a03c bfbd 30be 5b5e 6cbd 9cdc b7bc
00000010: af1b 0bbd fcf3 a9be 90b8 e73c 2b6c 273e
00000020: 06cb e8bc 28d5 c03d e66c 89bb f452 19be
00000030: 75a7 25bd 2138 3dbc 9e91 92bd 2384 74bc

decoder.reg.model.1.norm.running_mean f4 [16]
-0.062355764 -0.6002532 0.33283958 2.1822467 -0.35808045 3.9610722 -0.7748931 -0.16048433
0.82062286 0.73226553 0.6036043 0.68032926 -0.42772838 0.38561735 0.67272544 -0.52241796
00000000: c268 7fbd 32aa 19bf f369 aa3e eea9 0b40
00000010: 5256 b7be 3582 7d40 655f 46bf 0156 24be
00000020: 5714 523f c175 3b3f d085 1a3f 0f2a 2e3f
00000030: 37ff dabe a36f c53e bc37 2c3f 2fbd 05bf

decoder.reg.model.1.norm.running_var f4 [16]
0.016092284 0.0047617913 0.026205905 0.0073880497 0.013565189 0.0057518655 0.019243753 0.02238539
0.03554648 0.040184643 0.043264296 0.02061635 0.008854233 0.011278417 0.027948095 0.03880226
00000000: f7d3 833c cd08 9c3b c4ad d63c 7417 f23b
00000010: 8740 5e3c 257a bc3b 13a5 9d3c 9161 b73c
00000020: 3099 113d a798 243d e735 313d 9fe3 a83c
00000030: 5811 113c 1cc9 383c 67f3 e43c 1eef 1e3d

decoder.reg.model.2.weight f4 [16, 16, 3, 3, 3]
-0.15708852 -0.27167833 -0.017684128 0.03628228 -0.25244203 -0.06075976 0.028069258 -0.23592873
-0.04559713 0.1192062 -0.23890087 -0.024567544 -0.024810059 -0.10186338 -0.022839949 -0.1219682
-0.22309384 0.008033383 0.062896125 0.03311472 0.029675312 -0.13215172 0.026099721 -0.05076825
-0.07752618 -0.081898704 -0.10820438 -0.088167325 -0.22780102 0.042607654 0.009495569 -0.0909764
-0.009998913 0.16241525 -0.013152727 0.17429361 -0.106293514 0.028754506 -0.03704809 -0.049583558
-0.12200806 -0.09874156 0.14909096 -0.12682644 0.019250069 -0.09223659 -0.42242578 0.07538099
0.054139115 0.045365684 -0.039649718 2.3416154e-05 -0.25977546 0.041956805 0.10664646 0.03138406
0.11888425 -0.049932007 -0.24942484 -0.10315582 0.04541231 -0.183747 -0.046368722 0.026845621
0.113964885 -0.029385243 -0.08626527 -0.26711348 0.013706066 -0.07112986 -0.108228594 -0.025785407
0.06669056 -0.19280276 0.06683657 0.10103937 -0.25997022 0.023087481 0.28571123 -0.053526107
0.15410006 0.22884192 0.25067163 0.20033447 0.009836704 -0.21094476 -0.07154219 -0.05525271
-0.24405634 -0.112635076 -0.03505862 0.21856138 0.010141725 0.08136554 -0.079505116 0.06960362
-0.072711244 -0.32935166 -0.020014198 -0.15852341 0.14972153 -0.031101169 0.054505434 0.038221642
-0.030449133 -0.0045432844 -0.11860334 -0.089716695 0.04541862 0.15874688 0.05883224 0.005935549
-0.30740047 0.028600875 0.066884466 -0.36809927 -0.0030765918 -0.069716506 -0.23233442 0.037197288
-0.11426252 -0.11403633 -0.09644322 -0.030828746 -0.04174999 -0.026585612 -0.178971 -0.2197027
-0.14787503 -0.17080584 -0.17364159 -0.123888336 -0.11020593 -0.054265827 -0.0019259384 0.06570813
-0.1518724 0.023940688 0.03455965 -0.16088414 0.010550289 0.16072355 -0.12957765 0.069898166
0.08657467 -0.16305487 0.0055199615 0.024092788 0.067311004 -0.046825785 0.03750659 -0.16664691
-0.016033594 -0.25650355 -0.1594304 -0.06255557 0.045384914 0.13017188 0.040049214 0.0014969034
-0.12450346 0.08200581 0.07686252 0.2642422 0.16845265 -0.08289777 -0.0808662 0.025616348
-0.0022396054 -0.30704653 0.014262349 0.024343057 0.22343172 -0.054523002 0.026367486 0.048846774
-0.065906726 -0.0105836205 -0.28278917 0.12959203 -0.123597324 0.055098012 0.04690318 0.04223773
0.07167862 -0.008521114 0.2109419 -0.1314361 0.10657349 0.08487506 0.08797727 0.04338419
-0.01721505 -0.23757796 -0.004171351 0.083388306 -0.040040202 0.07310042 0.096044 -0.04600495
0.110409625 -0.00064770266 -0.019085405 -0.10561953 -0.017453585 -0.034537334 0.031116785 -0.016694497
-0.06826411 0.06459131 -0.03470434 0.09845327 -0.037259962 -0.030113926 0.059931535 0.04968988
0.14868684 0.04743783 0.30510768 0.14086771 0.13021845 0.12848155 0.16882102 0.04378026
0.06989988 0.051570058 -0.024369223 0.23284218 0.04277713 0.10842598 0.04788527 0.15776491
-0.014148885 0.03700186 0.03099674 0.01462925 0.074352875 0.10763517 0.120078154 0.1212527
0.03149946 0.023486812 0.04533831 0.08252752 -0.006443478 0.005626772 0.13555013 0.16942301
0.07429387 0.059570316 -0.07316526 0.04805492 0.09384062 -0.16181138 0.028475877 0.035891175
00000000: d0db 20be 6c19 8bbe 4ede 90bc ba9c 143d
00000010: 1540 81be 3adf 78bd 80f1 e53c 4d97 71be
00000020: 0ec4 3abd 6122 f43d 6ea2 74be e041 c9bc
00000030: 773e cbbc bf9d d0bd d81a bbbc 77ca f9bd
00000040: b672 64be 739e 033c afcf 803d 4da3 073d
00000050: a419 f33c c852 07be 15cf d53c 5ef2 4fbd
00000060: 0cc6 9ebd 82ba a7bd 429a ddbd 1291 b4bd
00000070: ac44 69be 5d85 2e3d 4e93 1b3c d651 babd
00000080: 7bd2 23bc 2f50 263e 897e 57bc 067a 323e
00000090: 6ab0 d9bd 928e eb3c bdbf 17bd 2118 4bbd
000000a0: 5ddf f9bd 0439 cabd 4dab 183e cade 01be
000000b0: 52b2 9d3c 8ae6 bcbd 3148 d8be 5961 9a3d
000000c0: fac0 5d3d 5ed1 393d be67 22bd cf6d c437
000000d0: 4a01 85be e6da 2b3d 7669 da3d 928c 003d
000000e0: 9679 f33d 8185 4cbd 3a69 7fbe 5c43 d3bd
000000f0: 4202 3a3d 2c28 3cbe 21ed 3dbd 59eb db3c
00000100: 6c66 e93d 52b9 f0bc d9ab b0bd 19c3 88be
00000110: 688f 603c 88ac 91bd f4a6 ddbd eb3b d3bc
00000120: 0f95 883d 166e 45be 9de1 883d bbed ce3d
00000130: d11a 85be f521 bd3c be48 923e 313e 5bbd
00000140: 68cc 1d3e 8955 6a3e 0858 803e 7b24 4d3e
00000150: 202a 213c e701 58be b684 92bd aa50 62bd
00000160: e8e9 79be 38ad e6bd a199 0fbd 8ece 5f3e
00000170: 7a29 263c faa2 a63d 94d3 a2bd 588c 8e3d
00000180: a2e9 94bd c8a0 a8be d1f4 a3bc f653 22be
00000190: 9a50 193e e1c7 febc 1741 5f3d 4c8e 1c3d
000001a0: 7670 f9bc d5df 94bb 4fe6 f2bd 63bd b7bd
000001b0: e008 3a3d 8b8e 223e 13fa 703d fe7e c23b
000001c0: 9863 9dbe 624c ea3c b9fa 883d 8277 bcbe
000001d0: a5a0 49bb 87c7 8ebd 13e9 6dbe 2f5c 183d
000001e0: 7802 eabd e18b e9bd 0684 c5bd 918c fcbc
000001f0: 0a02 2bbd 12ca d9bc 2c44 37be bff9 60be
00000200: 8d6c 17be bae7 2ebe 1acf 31be 2bb9 fdbd
00000210: a6b3 e1bd d845 5ebd c56f fcba fc91 863d
00000220: 7084 1bbe 431f c43c 6b8e 0d3d d0be 24be
00000230: 1fdb 2c3c b794 243e 01b0 04be c526 8f3d
00000240: 104e b13d dbf7 26be cbe0 b43b 3d5e c53c
00000250: 5ada 893d 65cc 3fbd 83a0 193d 7da5 2abe
00000260: e258 83bc 6f54 83be b941 23be 221d 80bd
00000270: 88e5 393d c74b 053e a50a 243d be33 c43a
00000280: acfb febd aaf2 a73d 196a 9d3d c14a 873e
00000290: da7e 2c3e 4ec6 a9bd 2e9d a5bd 60d9 d13c
000002a0: 58c6 12bb 3435 9dbe a1ac 693c 176b c73c
000002b0: 49cb 643e 8353 5fbd a000 d83c 8e13 483d
000002c0: 1bfa 86bd ec66 2dbc bec9 90be c6b3 043e
000002d0: 9820 fdbd 74ae 613d 8d1d 403d 7801 2d3d
000002e0: 3ecc 923d 249c 0bbc 2701 583e 2f97 06be
000002f0: 3443 da3d fad2 ad3d 6d2d b43d 9fb3 313d
00000300: 9406 8dbc a347 73be d4af 88bb 7dc7 aa3d
00000310: 3201 24bd acb5 953d b7b2 c43d b06f 3cbd
00000320: 711e e23d 97ca 29ba ff58 9cbc 0d4f d8bd
00000330: d2fa 8ebc 0577 0dbd a1e8 fe3c e6c2 88bc
00000340: 0ece 8bbd 7348 843d 2326 0ebd dea1 c93d
00000350: e79d 18bd 7bb1 f6bc c57a 753d 9e87 4b3d
00000360: 5d41 183e 2c4e 423d 1337 9c3e a03f 103e
00000370: fc57 053e ab90 033e 6bdf 2c3e ee52 333d
00000380: ab27 8f3d 203b 533d f7a1 c7bc 2e6e 6e3e
00000390: 1237 2f3d 710e de3d 5823 443d 208d 213e
000003a0: bad0 67bc 438f 173d e0ec fd3c 86af 6f3c
000003b0: 5246 983d d46f dc3d 89eb f53d 5653 f83d
000003c0: 9405 013d 6a67 c03c aab4 393d 3004 a93d
000003d0: d023 d3bb c960 b83b a7cd 0a3e 3a7d 2d3e
000003e0: 6227 983d 0100 743d abd7 95bd 3cd5 443d
000003f0: 832f c03d e2b1 25be 3e46 e93c a002 133d

decoder.reg.model.2.bias f4 [16]
0.0153140705 -0.002934693 -0.023021167 -0.0054967045 -0.0080917245 -0.008982703 -0.004025529 6.2854524e-05
-0.0076722326 -0.013765978 0.012979063 0.012735074 0.0029998538 -0.0046888944 0.0049898336 0.0019761205
00000000: dee7 7a3c fa53 40bb e396 bcbc b31d b4bb
00000010: 2793 04bc 302c 13bc 96e8 83bb c4d0 8338
00000020: 5a67 fbbb b28a 61bc 23a6 543c c6a6 503c
00000030: 3299 443b 4ca5 99bb c281 a33b cd81 013b

decoder.reg.model.2.norm.weight f4 [16]
0.27221638 0.24641223 0.22485086 0.16551767 0.22574592 0.16703847 0.117109 0.22910279
0.2638287 0.14935645 0.30585903 0.27762833 0.14232074 0.1390398 0.1456895 0.17232376
00000000: f25f 8b3e 7d53 7c3e 4e3f 663e 777d 293e
00000010: f029 673e 220c 2b3e d8d6 ef3d ec99 6a3e
00000020: 8e14 873e e6f0 183e 8e99 9c3e 4d25 8e3e
00000030: 87bc 113e 7360 0e3e a12f 153e a475 303e

decoder.reg.model.2.norm.bias f4 [16]
-0.095251635 -0.086595416 -0.094073586 0.059914913 -0.2747298 0.104924776 -0.006888909 -0.1970736
-0.029444171 -0.2900458 -0.16635811 -0.07586812 -0.02579779 0.05369779 0.03145695 -0.41786075
00000000: 4a13 c3bd f058 b1bd a7a9 c0bd 5769 753d
00000010: 62a9 8cbe cde2 d63d 5bbc e1bb a9cd 49be
00000020: e734 f1bc e280 94be c859 2abe bf60 9bbd
00000030: e355 d3bc 37f2 5b3d 01d9 003d d8f1 d5be

decoder.reg.model.2.norm.running_mean f4 [16]
0.14256293 0.20332669 -0.17785528 0.098881304 0.050005767 0.049938522 0.17087053 -0.12477384
0.47458762 -0.32234344 -0.14982222 0.30200624 0.2694996 0.18011814 -0.35090587 -0.120884374
00000000: 04fc 113e df34 503e b21f 36be 4882 ca3d
00000010: d9d2 4c3d 568c 4c3d aff8 2e3e 6d89 ffbd
00000020: 26fd f23e 330a a5be ff6a 19be 90a0 9a3e
00000030: dafb 893e e470 383e efa9 b3be 3a92 f7bd

decoder.reg.model.2.norm.running_var f4 [16]
0.058729768 0.058054794 0.033346165 0.060435794 0.04415005 0.07216505 0.037070416 0.05387813
0.09705882 0.030846512 0.047397863 0.06785108 0.03924663 0.049657244 0.07021049 0.050594516
00000000: a08e 703d ddca 6d3d fd95 083d 868b 773d
00000010: afd6 343d 45cb 933d 26d7 173d 50af 5c3d
00000020: c6c6 c63d d3b1 fc3c 4324 423d 82f5 8a3d
00000030: 13c1 203d 6565 4b3d 84ca 8f3d 323c 4f3d

decoder.reg.model.3.weight f4 [8, 16, 3, 3, 3]
0.1217235 0.18197012 0.18009974 0.15103059 0.14031164 0.23600784 0.26020834 0.35620245
0.24722348 0.025954686 -0.18425626 0.05875677 -0.03158803 -0.2898101 -0.124581695 -0.0095003545
0.011140674 -0.04956356 0.029925596 -0.02544837 0.119102485 0.015398602 0.17390814 0.1028486
0.1787161 0.2328364 0.14157456 -0.024662608 0.0029358517 -0.03507606 -0.057785325 0.039625395
-0.050999075 -0.0122738825 -0.440443 -0.020158794 -0.012548884 -0.07264515 -0.016389908 0.017249854
-0.06183648 -0.047861017 0.12294378 -0.36169294 -0.018422918 -0.05965978 0.033461418 -0.020802446
0.013931548 -0.10041825 -0.0025595864 -0.05604521 -0.1950727 0.024430385 -0.052306812 -0.081059605
-0.023560222 -0.077966765 0.028386151 -0.068135455 0.018121067 0.07146709 0.002208532 -0.034801558
0.035531454 -0.031546656 -0.028679779 -0.007052094 0.017005656 -0.015257482 0.045076273 -0.050446402
0.0019260384 0.20641845 0.0051359097 0.012263316 0.104190074 -0.026698442 0.060762953 0.04607792
0.040201314 0.00024025397 -0.18701963 -0.0017788097 0.0075388523 0.017339872 0.009935889 -0.042092685
0.081733964 0.021610452 0.0036219032 -0.18558738 0.023173824 3.300535e-05 -0.0064184885 0.016425041
0.007936822 -0.073220864 0.038371097 0.006343473 -0.16634935 -0.0009567852 0.046276655 0.1997508
-0.036381602 -0.08047979 0.010294079 0.05909853 -0.0057138363 0.020896887 -0.005855676 0.03097741
0.066731244 -0.27302745 0.03010345 0.15115006 -0.11210664 -0.053679604 -0.027864227 -0.1196942
0.036397688 -0.03213842 -0.46830687 -0.017762467 0.028523736 0.2248057 0.05623047 0.08554413
0.049799085 0.008561344 0.092601515 0.23384239 0.050860554 0.04353032 -0.12914851 -0.20279846
-0.17436472 -0.15439337 0.0048806444 -0.06836953 -0.026514806 -0.2995307 -0.16045398 -0.30002978
0.06610219 -0.044411596 0.026589133 0.122098826 0.10467938 0.13788526 0.034026332 0.13013366
-0.016492674 -0.21161899 -0.09570875 -0.29709187 -0.052538544 0.016297085 -0.039662205 -0.3531156
-0.054269925 -0.28047028 -0.13972302 -0.08034312 -0.09184849 -0.01436348 -0.01578207 0.012647536
-0.069557086 -0.09909018 -0.13939567 -0.057424497 -0.041671436 0.010321083 -0.102167346 -0.039262805
0.0261493 -0.06926541 0.0453043 -0.039010644 -0.08584881 -0.20737097 -0.044126377 -0.025267674
0.014629054 0.044188328 -0.02804973 0.009832685 -0.031377897 -0.15923688 -0.07980553 -0.120834045
-0.090447746 -0.10702235 -0.048486903 -0.13439296 -0.20990866 -0.2065093 0.14399363 0.15190499
0.10414216 0.08425275 0.0034789215 0.09829078 0.10625736 0.059802897 0.08005251 -0.12101355
-0.071808696 -0.19403285 -0.0749958 -0.037456494 -0.17654738 -0.18446533 -0.16599855 -0.27139542
0.09166661 0.124536194 0.15505548 0.040549252 0.27366513 0.1315879 0.035442352 0.37394512
-0.047057122 -0.047567952 -0.014621911 -0.013935267 -0.072135046 0.2508334 0.024080286 -0.02599672
0.42030653 -0.12568064 -0.077027656 0.17175965 0.06429727 0.031926494 0.35582063 0.106608786
0.010133726 0.4735029 0.0572464 -0.018825823 -0.26701272 -0.10100517 0.059215285 -0.05137324
0.06236143 0.11466601 0.37979433 0.1381142 0.024434423 0.09498067 -0.06297079 0.031721596
00000000: 2c4a f93d 6056 3a3e 116c 383e c3a7 1a3e
00000010: dbad 0f3e 0aac 713e 073a 853e 2b60 b63e
00000020: 2728 7d3e ec9e d43c acad 3cbe f0aa 703d
00000030: 7362 01bd fd61 94be b024 ffbd 60a7 1bbc
00000040: 6087 363c 2903 4bbd 8626 f53c 1a79 d0bc
00000050: 01ec f33d 6b4a 7c3c fa14 323e 49a2 d23d
00000060: 5a01 373e aa6c 6e3e ecf8 103e 3d09 cabc
00000070: 6b67 403b eaab 0fbd 4eb0 6cbd 3d4e 223d
00000080: 68e4 50bd 6518 49bc bf81 e1be 0e24 a5bc
00000090: d699 4dbc fbc6 94bd 2144 86bc 914f 8d3c
000000a0: 4048 7dbd ea09 44bd f3c9 fb3d d12f b9be
000000b0: a9eb 96bc d05d 74bd d70e 093d e469 aabc
000000c0: 2641 643c 15a8 cdbd bcbe 27bb aa8f 65bd
000000d0: 23c1 47be 3b22 c83c ab3f 56bd 9402 a6bd
000000e0: 5e01 c1bc 0aad 9fbd 138a e83c 9a8a 8bbd
000000f0: a272 943c 565d 923d 05bd 103b 148c 0ebd
00000100: 6e89 113d 1137 01bd dbf1 eabc 4115 e7bb
00000110: 724f 8b3c 85fa 79bc e6a1 383d e3a0 4ebd
00000120: 2073 fc3a 5c5f 533e 224b a83b 13ec 483c
00000130: 9b61 d53d b1b6 dabc 93e2 783d 33bc 3c3d
00000140: 22aa 243d afec 7b39 1382 3fbe f326 e9ba
00000150: 7a08 f73b 590c 8e3c 24ca 223c 6169 2cbd
00000160: 2364 a73d 6708 b13c 745d 6d3b 9e0a 3ebe
00000170: 08d7 bd3c 3a6f 0a38 2f52 d2bb cf8d 863c
00000180: 7209 023c d2f4 95bd 032b 1d3d e9dc cf3b
00000190: 7c57 2abe c5d0 7aba 978c 3d3d 798b 4c3e
000001a0: e004 15bd 97d2 a4bd 7fa8 283c 4d11 723d
000001b0: 223b bbbb f32f ab3c f8e0 bfbb 56c4 fd3c
000001c0: 64aa 883d 41ca 8bbe 839b f63c 15c7 1a3e
000001d0: 2b98 e5bd 25df 5bbd 8543 e4bc 3c22 f5bd
000001e0: be15 153d 93a3 03bd ebc5 efbe 9882 91bc
000001f0: 9caa e93c 7733 663e ec51 663d c331 af3d
00000200: 20fa 4b3d e144 0c3c dda5 bd3d 6174 6f3e
00000210: 2853 503d d94c 323d 823f 04be 66aa 4fbe
00000220: aa8c 32be 4c19 1ebe d0ed 9f3b 5305 8cbd
00000230: 9435 d9bc 175c 99be 0c4e 24be 819d 99be
00000240: 9660 873d efe8 35bd 74d1 d93c f30e fa3d
00000250: 2562 d63d cb31 0d3e 325f 0b3d c241 053e
00000260: a51b 87bc a6b2 58be f302 c4bd 6d1c 98be
00000270: a832 57bd 7781 853c d674 22bd 91cb b4be
00000280: 244a 5ebd cd99 8fbe 8d13 0fbe ef8a a4bd
00000290: 101b bcbd cd54 6bbc 6649 81bc 9c37 4f3c
000002a0: f273 8ebd cbef cabd bdbd 0ebe f335 6bbd
000002b0: abaf 2abd c219 293c 1d3d d1bd 09d2 20bd
000002c0: 0f37 d63c 06db 8dbd 0091 393d a0c9 1fbd
000002d0: 80d1 afbd 0e59 54be dcbd 34bd 27fe cebc
000002e0: b3ae 6f3c d2fe 343d 8cc8 e5bc 4519 213c
000002f0: 1c86 00bd fe0e 23be 1571 a3bd d777 f7bd
00000300: ab3c b9bd 892e dbbd 349a 46bd 4f9e 09be
00000310: 4cf2 56be 2d77 53be 1173 133e fb8c 1b3e
00000320: 7c48 d53d b58c ac3d 9efe 633b ad4c c93d
00000330: 759d d93d e2f3 743d 92f2 a33d f4d5 f7bd
00000340: 7010 93bd 8cb0 46be 6697 99bd fb6b 19bd
00000350: d6c8 34be 7be4 3cbe 86fb 29be 57f4 8abe
00000360: b4bb bb3d d50c ff3d ddc6 1e3e f916 263d
00000370: d61d 8c3e fabe 063e 002c 113d bc75 bf3e
00000380: f8be 40bd 9dd6 42bd bd90 6fbc bf50 64bc
00000390: 8abb 93bd 3c6d 803e 0544 c53c 13f7 d4bc
000003a0: 6b32 d73e 6db2 00be adc0 9dbd c3e1 2f3e
000003b0: 49ae 833d 5bc5 023d 1f2e b63e b555 da3d
000003c0: ed07 263c f96e f23e 337b 6a3d 9d38 9abc
000003d0: e4b5 88be ccdb cebd ba8b 723d bf6c 52bd
000003e0: b36e 7f3d 03d6 ea3d 6774 c23e cf6d 0d3e
000003f0: b32a c83c 3a85 c23d d4f6 80bd 81ee 013d

decoder.reg.model.3.bias f4 [8]
-0.003743162 -0.01811224 -0.006804821 -0.0013038596 0.0059128352 -0.0009777523 -0.00049782277 0.008752273
00000000: d64f 75bb 1f60 94bc fafa debb 45e6 aaba
00000010: 75c0 c13b ec27 80ba 5280 02ba b265 0f3c

decoder.reg.model.3.norm.weight f4 [8]
0.27957588 0.097423635 0.25453383 0.123398736 0.121368244 0.2449428 0.27468917 0.24964023
00000000: 9224 8f3e 0b86 c73d 4252 823e 7ab8 fc3d
00000010: ea8f f83d 49d2 7a3e 0fa4 8c3e b0a1 7f3e

decoder.reg.model.3.norm.bias f4 [8]
-0.017104996 -0.0072411136 -0.00096868357 0.039277885 -0.021771709 0.24760716 -0.1760164 0.1303209
00000000: c71f 8cbc dd46 edbb 41ef 7dba d9e1 203d
00000010: 955a b2bc bb8c 7d3e a53d 34be d872 053e

decoder.reg.model.3.norm.running_mean f4 [8]
-0.20773375 -0.019015044 0.14133288 0.51566005 -0.23979504 -0.23824294 -0.1858386 -0.023603281
00000000: 28b8 54be 70c5 9bbc 91b9 103e 4c02 043f
00000010: d58c 75be f5f5 73be 794c 3ebe ab5b c1bc

decoder.reg.model.3.norm.running_var f4 [8]
0.12087674 0.030069975 0.077721566 0.056348044 0.027827954 0.1106449 0.085460566 0.1382005
00000000: 398e f73d 4f55 f63c 7c2c 9f3d 35cd 663d
00000010: 73f7 e33c cb99 e23d f305 af3d 6f84 0d3e

decoder.reg.model.4.weight f4 [8, 8, 3, 3, 3]
-0.024958784 -0.105629556 0.0016173499 0.06634059 -0.019331485 0.06754533 -0.02954862 -0.21614635
-0.08520409 -0.0017236279 0.024705265 -0.080561236 0.013508481 0.05327074 0.10242757 -0.005421334
-0.22108272 0.02182353 -0.02633895 -0.17198007 0.053418703 -0.082876235 -0.095741384 -0.022156922
-0.08183626 -0.31633404 -0.087460086 -0.013499831 0.14144991 0.021407098 0.03746161 0.0733272
0.05141451 -0.055434324 -0.06438432 -0.004531408 0.08943875 0.13995937 0.06510233 0.06880133
0.35196203 0.011080394 0.09597239 0.29858005 0.004644184 0.037194144 0.26231518 0.050308634
-0.04846076 0.2021353 0.036622413 0.074081056 0.01327656 0.04151523 0.028293977 0.14598817
0.06423477 0.17189789 -0.029050807 0.030966414 -0.107279666 -0.06807159 -0.051965274 -0.034929633
-0.14497954 -0.042044148 -0.02304323 -0.051290914 -0.055353217 0.06975855 0.28442943 0.07962135
0.0324176 -0.03613583 0.07480732 -0.11090588 0.009818569 0.029450126 0.13240018 0.069434494
-0.051186807 -0.01898895 -0.07412066 0.01254379 -0.10669809 0.13422415 -0.034815166 0.072313614
0.054338943 -0.01197505 -0.011172477 0.047304895 0.032173824 0.039135907 0.0077671497 0.02816482
-0.059926204 -0.13257258 0.029437691 -0.11516888 0.07827137 -0.07654967 0.08100518 -0.027286561
-0.07825655 -0.03918411 -0.3845964 0.039447095 0.0015121668 0.07415421 0.10350767 0.068870395
0.25712723 0.13279393 0.07018581 0.21232222 -0.075430684 -0.051820755 0.19060227 -0.10807046
-0.030622615 0.07493959 -0.021994127 -0.0007484973 0.13574846 0.0043116016 0.05648748 0.22323284
0.086354755 -0.0244129 -0.0013626126 -0.021585442 0.088272095 0.074042074 0.08097558 -0.015789373
-0.086707465 -0.053377327 0.04591389 0.018080687 -0.01792511 -0.0043381914 0.18783823 -0.008417821
-0.0517169 0.043464817 -0.0048948997 -0.05207951 -0.33173785 -0.022257086 -0.007872963 -0.73780143
-0.02035131 0.010250529 -0.044655737 0.05849079 -0.10443484 -0.1671427 -0.072199665 -0.018500902
-0.2508623 -0.0055032 -0.031434644 0.23622726 0.039956678 0.04486609 0.5445319 0.2531744
0.21717869 0.2265719 0.071505465 -0.114569716 -0.20093116 0.030246822 -0.16879566 0.057836413
-0.018946217 -0.1679116 -0.05197163 0.03947246 0.30348095 0.7140941 0.052944303 0.04424006
0.60799605 -0.06668952 0.11860395 0.21067931 0.09083891 -0.008985019 0.15177183 0.01817795
-0.061502274 -0.27815586 -0.026143176 -0.047386203 0.008748421 -0.09069357 0.04726099 0.0054560998
0.078846544 0.02966102 -0.10243611 -0.05164928 -0.02676298 0.23647462 -0.0218351 0.051238593
-0.23552449 -0.010076909 -0.09406486 -0.13437508 -0.017408973 -0.00019459914 -0.152293 0.006474086
0.06729256 0.016418982 0.08200493 -0.09950229 0.11690704 -0.061616726 0.029869791 -0.21371551
-0.07856775 0.04032039 -0.10311369 0.114980996 -0.083428346 -0.16535835 -0.065143384 0.00685205
-0.28051475 -0.031189468 -0.011802923 -0.06564633 0.04441088 -0.060640153 -0.18345632 -0.05505494
0.10273717 -0.27343443 0.029770749 -0.055537064 -0.06692078 0.106393516 -0.07171701 -0.22330092
0.00804231 -0.049289092 -0.12198729 -0.08695594 -0.07465687 -0.16197406 0.005439469 -0.016905118
00000000: 5d76 ccbc 4f54 d8bd 42fd d33a 93dd 873d
00000010: 105d 9ebc 3555 8a3d f30f f2bc 7855 5dbe
00000020: 7b7f aebd 5beb e1ba b262 ca3c 4afd a4bd
00000030: ad52 5d3c 6b32 5a3d 8cc5 d13d 72a5 b1bb
00000040: 8263 62be 42c7 b23c c8c4 d7bc 8b1b 30be
00000050: 92cd 5a3d 04bb a9bd 0f14 c4bd 6f82 b5bc
00000060: c599 a7bd 89f6 a1be 461e b3bd 652e 5dbc
00000070: 3fd8 103e f05d af3c 5871 193d 922c 963d
00000080: 0598 523d 1a0f 63bd eddb 83bd 357c 94bb
00000090: aa2b b73d 8251 0f3e 5f54 853d b6e7 8c3d
000000a0: 5e34 b43e 8a8a 353c 2c8d c43d 7cdf 983e
000000b0: 3d2e 983b e358 183d 2d4e 863e 6d10 4e3d
000000c0: ca7e 46bd 8efc 4e3e 6201 163d cfb7 973d
000000d0: ee85 593c e00b 2a3d c5c8 e73c ec7d 153e
000000e0: 858d 833d 0006 303e f5fb edbc 47ad fd3c
000000f0: 71b5 dbbd 1e69 8bbd 8ad9 54bd 6012 0fbd
00000100: 8475 14be 7c36 2cbd 28c5 bcbc 6c16 52bd
00000110: 0eba 62bd 92dd 8e3d bca0 913e 8510 a33d
00000120: 51c8 043d 2a03 14bd 9534 993d 9f22 e3bd
00000130: 10de 203c 6441 f13c ea93 073e ac33 8e3d
00000140: 42a9 51bd b78e 9bbc 93cc 97bd 7884 4d3c
00000150: 8784 dabd 0e72 093e 599a 0ebd 2919 943d
00000160: 8392 5e3d 0033 44bc c40c 37bc c7c2 413d
00000170: b3c8 033d f94c 203d 9383 fe3b e9b9 e63c
00000180: 2e75 75bd 1bc1 07be 5027 f13c a9dd ebbd
00000190: bd4c a03d 13c6 9cbd 0be6 a53d 1188 dfbc
000001a0: f844 a0bd 847f 20bd d2e9 c4be 4793 213d
000001b0: e633 c63a 2ade 973d d4fb d33d ec0b 8d3d
000001c0: 2ea6 833e 22fb 073e 94bd 8f3d ff6a 593e
000001d0: 677b 9abd 0042 54bd 3e2d 433e 0c54 ddbd
000001e0: 47dc fabc ee79 993d 072d b4bc ce36 44ba
000001f0: a501 0b3e 5648 8d3b 6a5f 673d 2697 643e
00000200: c3da b03d 90fd c7bc b199 b2ba f4d3 b0bc
00000210: 00c8 b43d 5fa3 973d 86d6 a53d b758 81bc
00000220: af93 b1bd 2fa2 5abd 3410 3c3d f31d 943c
00000230: aed7 92bc 6327 8ebb aa58 403e e6ea 09bc
00000240: 1ad5 53bd 2a08 323d 6565 a0bb 5351 55bd
00000250: 8bd9 a9be 7e54 b6bc 9afd 00bc 8ee0 3cbf
00000260: cab7 a6bc d6f1 273c efe8 36bd 0a94 6f3d
00000270: efe1 d5bd 7527 2bbe 6bdd 93bd 348f 97bc
00000280: 0671 80be 3054 b4bb 9dc1 00bd 8fe5 713e
00000290: 9da9 233d 81c5 373d 7166 0b3f 13a0 813e
000002a0: 1764 5e3e 7702 683e 7571 923d 87a3 eabd
000002b0: e6c0 4dbe 2fc8 f73c c5d8 2cbe e0e5 6c3d
000002c0: 1935 9bbc 05f1 2bbe 34e0 54bd e0ad 213d
000002d0: db61 9b3e dfce 363f 20dc 583d 1135 353d
000002e0: a1a5 1b3f 8494 88bd a1e6 f23d 51bc 573e
000002f0: c009 ba3d e735 13bc 136a 1b3e ede9 943c
00000300: cfe9 7bbd 726a 8ebe 372a d6bc 0918 42bd
00000310: 8a55 0f3c 8dbd b9bd bd94 413d 15c9 b23b
00000320: 4c7a a13d abfb f23c 06ca d1bd 328e 53bd
00000330: 093e dbbc 6726 723e 86df b2bc 8fdf 513d
00000340: 552d 71be 9f19 25bc 14a5 c0bd 9f99 09be
00000350: 439d 8ebc 4f0d 4cb9 b2f2 1bbe 9224 d43b
00000360: afd0 893d 1a81 863c 33f2 a73d dbc7 cbbd
00000370: f56c ef3d d261 7cbd 7eb1 f43c 3dd8 5abe
00000380: 21e8 a0bd fe26 253d 452d d3bd 287b eb3d
00000390: 7bdc aabd b353 29be e569 85bd 2987 e03b
000003a0: a19f 8fbe 0e81 ffbc 0c61 41bc 9571 86bd
000003b0: 2fe8 353d cf61 78bd f9db 3bbe 4a81 61bd
000003c0: de67 d23d 99ff 8bbe c9e1 f33c d57a 63bd
000003d0: c30d 89bd d8e4 d93d 5ee0 92bd ffa8 64be
000003e0: e5c3 033c 5ce3 49bd 79d4 f9bd f515 b2bd
000003f0: b3e5 98bd 87dc 25be 933d b23b 9a7c 8abc

decoder.reg.model.4.bias f4 [8]
-0.009164294 0.04085328 -0.013486508 -0.009780595 -0.0036419516 0.0068889037 0.027170539 0.01254641
00000000: d625 16bc c555 273d 84f6 5cbc ca3e 20bc
00000010: cfad 6ebb 50bc e13b c094 de3c 758f 4d3c

decoder.reg.model.4.norm.weight f4 [8]
0.17085846 0.25143602 0.08757544 0.268502 0.05891466 0.09349381 0.1687712 0.14830188
00000000: 85f5 2e3e 39bc 803e c15a b33d 1879 893e
00000010: 8050 713d af79 bf3d 5cd2 2c3e 73dc 173e

decoder.reg.model.4.norm.bias f4 [8]
-0.050679013 0.039042793 -0.073141225 0.026965266 0.02825559 -0.20612985 -0.26680326 -0.06328777
00000000: cc94 4fbd 56eb 1f3d 11cb 95bd 43e6 dc3c
00000010: 4478 e73c b413 53be 709a 88be 059d 81bd

decoder.reg.model.4.norm.running_mean f4 [8]
-0.7039804 0.61195743 -0.29023066 0.8433661 -0.17905924 -0.18440849 -0.29268903 -0.5448373
00000000: 0f38 34bf 3ea9 1c3f 1d99 94be d7e6 573f
00000010: 4e5b 37be 94d5 3cbe 56db 95be 757a 0bbf

decoder.reg.model.4.norm.running_var f4 [8]
0.11682289 0.08946894 0.0154659385 0.25107503 0.023891864 0.043311875 0.028987158 0.12641516
00000000: d740 ef3d 7e3b b73d d964 7d3c e88c 803e
00000010: dfb8 c33c cb67 313d 7a76 ed3c fa72 013e
